…
        "id": "sgB1dDJ1KypF",
        "outputId": "9b5a3926-23c1-4fa4-f0ce-a4beab9fa19a"
      },
      "source": [
        "model.summary()"
      ],
      "execution_count": 26,
      "outputs": [
        {
          "output_type": "stream",
          "name": "stdout",
          "text": [
            "Model: \"sequential\"\n",
            "_________________________________________________________________\n",
            " Layer (type)                Output Shape              Param #   \n",
            "=================================================================\n",
            " conv2d (Conv2D)             (None, 148, 148, 32)      896       \n",
            "                                                                 \n",
            " max_pooling2d (MaxPooling2  (None, 74, 74, 32)        0         \n",
            " D)                                                              \n",
            "                                                                 \n",
            " conv2d_1 (Conv2D)           (None, 72, 72, 64)        18496     \n",
            "                                                                 \n",
            " max_pooling2d_1 (MaxPoolin  (None, 36, 36, 64)        0         \n",
            " g2D)                                                            \n",
            "                                                                 \n",
            " conv2d_2 (Conv2D)           (None, 34, 34, 128)       73856     \n",
            "                                                                 \n",
            " max_pooling2d_2 (MaxPoolin  (None, 17, 17, 128)       0         \n",
            " g2D)                                                            \n",
            "                                                                 \n",
            " conv2d_3 (Conv2D)           (None, 15, 15, 512)       590336    \n",
            "                                                                 \n",
            " max_pooling2d_3 (MaxPoolin  (None, 7, 7, 512)         0         \n",
            " g2D)                                                            \n",
            "                                                                 \n",
            " flatten (Flatten)           (None, 25088)             0         \n",
            "                                                                 \n",
            " dropout (Dropout)           (None, 25088)             0         \n",
            "                                                                 \n",
            " dense (Dense)               (None, 512)               12845568  \n",
            "                                                                 \n",
            " dense_1 (Dense)             (None, 3)                 1539      \n",
            "                                                                 \n",
            "=================================================================\n",
            "Total params: 13530691 (51.62 MB)\n",
            "Trainable params: 13530691 (51.62 MB)\n",
            "Non-trainable params: 0 (0.00 Byte)\n",
            "_________________________________________________________________\n"
…
